mnist/models/mnist_model.pt (torch, 625328 bytes, 4 tensors)

fc1.weight f4 [196, 784]
000000 4e ab 97 3c 6b 19 4b 3c ea 0d 9a 3c 13 92 a6 bc
       0.018514302 0.012396197 0.018805463 -0.020333325
000010 d6 0b 52 bc 87 70 54 3b 08 b1 78 bc e4 64 59 bc
       -0.012820205 0.0032415704 -0.015178926 -0.013268683
000020 a6 51 25 39 23 dd 93 3c e3 54 fd 3c 99 be 1c 3c
       0.00015766043 0.018049782 0.030924266 0.009566926
000030 10 ac c3 bc 42 18 f7 bc a8 7b 8a bc de 57 17 3c
       -0.023885757 -0.030162934 -0.016904667 0.009237258
000040 b2 38 52 bc f2 2d 49 bc ae 4c ae bc cc de 9d bc
       -0.0128309 -0.012279021 -0.021276798 -0.019271277
000050 4c ac 87 3c 43 d3 95 bc a0 e3 89 ba 64 f6 02 3b
       0.01656165 -0.018289214 -0.0010520108 0.0019983286
000060 8c de e7 3c 3c 56 b3 bc a4 57 12 bd e4 f0 33 bc
       0.02830436 -0.021891706 -0.035728112 -0.010982726
000070 48 74 17 bd 0f 35 01 bb ba 22 de 3c 6f fa ff bc
       -0.03697613 -0.0019715463 0.027116168 -0.031247346
000080 91 37 8c 3c 55 ec 49 3c 41 c3 bc 3b 23 3d c9 3c
       0.01711634 0.012324412 0.0057605808 0.024565285
000090 1d ce 05 3d 70 bd dd 3c 24 00 ab 3c dd cb bb 3c
       0.032667268 0.02706787 0.02087409 0.022924358
0000a0 72 3b 82 bc 76 a3 32 38 41 b9 fd bb 41 0e 00 bd
       -0.015897486 4.2590742e-05 -0.0077430313 -0.031263594
0000b0 92 05 b3 3c 57 83 37 3c be df e0 bc 3e cb 9a 3c
       0.021853242 0.011200747 -0.027450439 0.018895742
0000c0 09 c4 b4 bc 12 87 19 bd 19 ca 17 bc c8 14 f6 3c
       -0.022066133 -0.03748233 -0.009264492 0.030039206
0000d0 ab 92 64 3c 4f 40 87 bb 08 cd 34 bc cc a2 91 bb
       0.013950984 -0.004127539 -0.011035211 -0.0044444557
0000e0 ca 32 8d bc f5 49 9f 3c e0 45 92 bc eb ce 38 bc
       -0.017236132 0.019444445 -0.017855585 -0.011279802
0000f0 f6 40 14 bb 06 eb 5f 3c 1d ec a3 bc 3e 98 82 bc
       -0.0022621728 0.013666874 -0.020010049 -0.015941735
000100 b1 ca 97 3b f9 44 03 3d e5 f2 09 3c 01 5f 03 3d
       0.004632317 0.0320482 0.008419727 0.032073025
000110 f5 28 2e bb f0 9a cc 3c 0e 2d ef ba 1c 30 e5 3c
       -0.0026574705 0.024976224 -0.001824768 0.027977042
000120 b7 9a bd bc 6b d8 7c 3c 66 67 ea 3c 08 6b b2 bc
       -0.023145063 0.015432457 0.028613757 -0.021779552
000130 73 c7 9a 3b d9 56 6c bc c5 8e e1 3c 62 5b 08 bd
       0.004723483 -0.014425003 0.027533898 -0.033290274
000140 c6 51 18 bd 88 eb 31 bc ba 1c c5 bc 30 c7 b3 3a
       -0.03718736 -0.010859378 -0.02406155 0.0013715979
000150 01 d5 c7 3c f5 c5 a1 3c 88 0b f4 bb 94 38 90 bc
       0.02439356 0.019747714 -0.0074476637 -0.017605104
000160 02 69 46 3c ef e7 3e 3c 8b 9c f6 bb e7 4e 5a 3b
       0.012109997 0.011651977 -0.0075259856 0.003331119
000170 39 12 f0 3b 3b de bf 3c 04 01 5d bc 7f 91 15 3c
       0.007326391 0.023421397 -0.013489012 0.009128927
000180 70 cd ef bc 41 75 0c bd 92 47 00 bd 58 ee 04 bd
       -0.029272765 -0.03429151 -0.031318255 -0.032453865
000190 3c 66 dd bb 85 53 08 3c 33 ec 1a bc 79 7d d1 3c
       -0.006756572 0.008320694 -0.009455728 0.025572525
0001a0 45 8e d2 bb 54 6f bf bc de cd bc 3c 76 49 b7 3c
       -0.0064256513 -0.023368515 0.023047384 0.022373896
0001b0 f7 75 be 3c 3d 66 c0 3c ae 0d c6 bc 01 20 e0 3c
       0.02324961 0.023486251 -0.024176445 0.02735901
0001c0 9e 44 09 bc b1 2a 14 bd 09 46 65 bc 08 46 c0 bc
       -0.008378176 -0.036173526 -0.013993748 -0.023470894
0001d0 93 5f 42 3c 75 ab 07 bd 77 53 01 3d 53 e7 a8 ba
       0.011863607 -0.0331225 0.03157374 -0.0012886323
0001e0 df bd 3c bb d1 c5 54 bc f8 20 d0 3b f1 72 9a bc
       -0.0028799695 -0.012986616 0.0063515864 -0.018853636
0001f0 48 c9 c0 bc 79 c0 33 3c c4 5c b3 3c 8c 06 bf bc
       -0.023533478 0.010971182 0.02189482 -0.023318551
000200 30 ee b7 3c 76 9b 12 3c 9e de dc bc be 9b c8 3b
       0.022452444 0.008948198 -0.02696162 0.0061220815
000210 32 c1 84 bb 76 00 c4 3c 1d 60 76 3c 41 a2 4b 3c
       -0.004051351 0.023926001 0.015037564 0.012428821
000220 4b 98 0a bd cd 45 03 3c 69 a9 4d bb 89 02 d3 3c
       -0.033836644 0.008012247 -0.0031381494 0.025758045
000230 b4 de 46 3c 14 88 83 bc 57 03 d9 3c b1 d8 d5 bc
       0.0121380575 -0.016056098 0.02649085 -0.026104303
000240 13 41 b6 ba 5a 22 a9 3b e3 05 be bc b7 51 de 3c
       -0.0013904892 0.0051615657 -0.023196166 0.027138574
000250 de 5e 02 bd 53 94 01 3d 96 9b de ba 88 e3 22 3c
       -0.031828754 0.031635594 -0.0016983624 0.009941943
000260 b4 e3 64 bb 01 34 f5 bc 2e b5 e1 3c 7e 1d 1b 3c
       -0.003492576 -0.029932024 0.027552214 0.009467481
000270 39 dd dc bc a3 22 a7 bc 00 9a ea bc 68 94 01 bd
       -0.026960956 -0.020402258 -0.028637886 -0.03163567
000280 ba e0 4e bc c3 60 81 3a 21 dc 3d bb 9f 60 b7 bc
       -0.012626821 0.0009870756 -0.0028970318 -0.02238494
000290 06 88 d6 3c 22 6e 77 3c e6 74 08 bd 15 57 17 3c
       0.026187908 0.015101941 -0.033314608 0.009237071
0002a0 48 63 5f bc 8c b8 02 3c a9 72 33 bc de 3a 0b bc
       -0.01363451 0.00797857 -0.01095263 -0.008497922
0002b0 4f 50 ce bc c9 26 0c bc 39 d1 15 bd 86 78 d2 bc
       -0.025184778 -0.008554169 -0.036576483 -0.025692236
0002c0 fc 19 8f 3b 65 ff 9d 3b a2 ae 26 bc 2d e7 8a bc
       0.0043671113 0.004821705 -0.010173472 -0.016955936
0002d0 28 4c ca bc 52 32 fb 3b 76 94 05 3d 36 a1 f5 3c
       -0.024694517 0.0076659108 0.032612287 0.029984098
0002e0 92 f8 9c 3c 46 0b 08 3c df e6 42 3b 20 75 95 3c
       0.019161496 0.008303469 0.002973966 0.018244326
0002f0 63 56 17 bc 61 59 0e 3d 63 d1 92 bc b7 cf 89 bc
       -0.009236905 0.034753207 -0.017922109 -0.016822679
000300 c7 eb 69 3b 1d ac 92 3c 24 21 07 bb 7b 33 a8 bc
       0.0035693513 0.017904336 -0.0020619119 -0.02053236
000310 aa 1b d4 bc bd 30 e1 3c ea 92 cf bb 55 ab 03 3d
       -0.025892098 0.02748906 -0.006334652 0.032145817
000320 b6 3a 5d ba a8 ee d6 3b 77 cc cd 3c c7 61 a7 bc
       -0.00084392296 0.0065592118 0.02512191 -0.020432366
000330 94 ae df 3c 88 81 ca bc 08 72 bd bc 3b e7 50 bb
       0.027304925 -0.024719968 -0.023125663 -0.0031876105
000340 35 68 56 3b e7 8b 39 bc f7 f2 b7 bc 13 95 4e bc
       0.003271592 -0.011324859 -0.022454722 -0.012608784
000350 06 1f fc bc 29 be 65 bc fd 96 29 3a e3 45 b0 3c
       -0.030776512 -0.0140223885 0.00064693374 0.0215177
000360 1b a3 04 bd 73 cc 11 3d b7 c5 f7 3c 3c 3f ea 3c
       -0.032382112 0.03559537 0.030245645 0.028594606
000370 a2 94 e7 3b 2e d8 1c bc df 74 73 3c f0 9c 4e bb
       0.007067279 -0.009573026 0.014859407 -0.0031526648
000380 19 7c c5 3c f1 85 8e 3c 0e 36 ac 3c 28 b2 a8 bc
       0.024107026 0.017397853 0.021021869 -0.020592764
000390 38 25 01 3c 1d ab 28 bc 1d 5a d8 3b fb 45 cc 3b
       0.007882409 -0.010294703 0.006602539 0.0062339283
0003a0 b5 59 83 bc f4 fa 98 39 d9 d6 b7 3c 5a b9 04 3b
       -0.016033987 0.00029178674 0.022441315 0.002025208
0003b0 c1 89 bf bc a1 58 71 bc 6b 5b 90 bc 5d 67 b6 bc
       -0.023381116 -0.014730603 -0.017621716 -0.022266084
0003c0 4d 46 d5 bc 50 33 81 3c af b6 e9 bb ac f4 b8 3b
       -0.026034499 0.015771538 -0.0071323733 0.0056444015
0003d0 3e ae c5 3c d0 4f c2 3c 9a 7c 28 bc 37 8d 7b 3b
       0.024130937 0.023719698 -0.010283614 0.003838373
0003e0 27 fa 20 3d 2f ba cb bc 44 19 db bb a2 c6 a6 3b
       0.039301064 -0.024869053 -0.0066863615 0.005089597
0003f0 ab f3 9c bc 2f de aa bc 7f c0 14 3c 4d a6 f7 3c
       -0.019159159 -0.020857899 0.009079098 0.030230666

fc1.bias f4 [196]
000000 11 a8 ab bc b1 01 21 3d 7b 5b 18 3d cc 45 a2 3c
       -0.020954164 0.039308254 0.037196618 0.019808672
000010 10 2f 2e 3c f5 cd aa bc cb ec 90 bc ba fa 26 3c
       0.010631338 -0.020850161 -0.017691037 0.010191614
000020 d8 4d e7 bc bb 6c 0f 3c 07 1e 00 bc 91 86 98 3c
       -0.028235361 0.008753951 -0.007819659 0.018618854
000030 37 18 0e 3d 4a 5c 01 3d c7 83 90 bc ca f5 c6 3c
       0.03469106 0.031582154 -0.017640961 0.024287123
000040 08 f4 85 3a 18 ae 81 bc aa ce ea bc 06 b5 43 3c
       0.0010219822 -0.015830085 -0.028662998 0.011945015
000050 82 8b a0 3c 18 36 e7 3c 15 da b8 3c ef fe 98 bb
       0.019597773 0.028224036 0.022564927 -0.0046690623
000060 89 d3 e2 3c 71 1c 6c bc 0b 18 ab 3c 9b 76 97 3b
       0.027688758 -0.014411078 0.020885488 0.004622293
000070 2f 79 02 3d 19 61 16 3d 1e 46 94 bc 5a 0e e2 bb
       0.03185385 0.036713693 -0.01809984 -0.0068986835
000080 38 64 a6 3c 23 42 81 ba 74 e0 3c bb 99 4b bb 3c
       0.02031146 -0.0009861629 -0.0028820308 0.022863196
000090 a5 97 a6 3b 8d 32 3d 3c 32 19 01 bd a7 84 52 3c
       0.0050839954 0.011547697 -0.03151817 0.01284901
0000a0 09 e8 49 bc c5 c5 40 3c b9 89 df bc 13 c1 10 3d
       -0.012323388 0.011765902 -0.027287351 0.03534038
0000b0 43 21 56 bc 71 46 52 bc ee a6 0c 3d 80 9f 7c 3c
       -0.013069454 -0.012834177 0.034338884 0.015418887
0000c0 fd 28 4e ba 62 0f 0e 3d de 95 9a 3c 3b 82 06 ba
       -0.0007864384 0.03468264 0.01887029 -0.00051311
0000d0 ac 41 c3 3b 30 68 fb bc c5 a9 e7 bc ee 5c 33 3d
       0.0059587564 -0.030689329 -0.028279195 0.043789797
0000e0 c5 fe 99 bc 4a fe 99 3c a0 da b0 3c bb 27 1c 3d
       -0.018798241 0.018798012 0.021588624 0.038123827
0000f0 7d a7 13 3d 6c 42 00 3a 19 f6 24 bc 9c 80 ad bc
       0.0360484 0.000489271 -0.01006844 -0.02117949
000100 35 80 e7 bb 88 f6 7b bc 7d eb 7b 3c a6 23 9d 3b
       -0.007064844 -0.015378602 0.015375969 0.0047955094
000110 47 6c eb 3c 07 56 0b bb 4e ed 02 bc db b4 d5 3c
       0.028738154 -0.0021260993 -0.007991148 0.026087215
000120 96 51 c1 bc 37 e1 e1 bc 8d 37 77 3c 65 25 f5 bc
       -0.023598474 -0.027573211 0.015088928 -0.029925058
000130 28 19 e0 bc b6 45 f6 bb d4 bb 0a 3d 7a f5 f5 ba
       -0.027355745 -0.0075156344 0.033870533 -0.0018765174
000140 d7 e4 a1 3c 77 c2 ba 3b 55 ef a9 3c cd cf 60 3c
       0.01976244 0.0056994515 0.020744005 0.013721419
000150 f8 5b b2 3c 93 73 38 3a 62 03 54 bc 6c 6f 87 bc
       0.02177237 0.0007036265 -0.01294026 -0.016532622
000160 73 39 ec bb 60 bc a2 bc 81 0a ab 3b 52 27 bd bc
       -0.007208997 -0.019865215 0.005219758 -0.023090038
000170 47 fd 21 bc d8 63 10 3d 38 cb c0 bc ce 65 c6 3c
       -0.009887046 0.03525147 -0.023534402 0.024218466
000180 87 1c b7 bc 66 96 8f bc f0 2f 48 bc 3e c5 a3 3c
       -0.02235247 -0.01752777 -0.01221846 0.019991513
000190 87 4e e7 bb de 91 b2 bb 29 d6 f1 bc f4 4a df bc
       -0.0070589217 -0.0054495176 -0.029521065 -0.02725742
0001a0 07 8b 71 3c 73 e3 99 bc 47 49 80 3c 79 08 4a bc
       0.014742619 -0.018785214 0.015659941 -0.012331122
0001b0 ee d1 c6 3c 3b 12 c2 bb 9c e2 20 3d 74 6a 1f 3d
       0.024270024 -0.0059225834 0.03927861 0.03891988
0001c0 03 5c d9 3c af 70 00 3d 0d 2f 0b bd ef 6f 8b bb
       0.026533132 0.031357463 -0.033980418 -0.004255287
0001d0 5e 42 64 bc 83 23 67 3c 27 55 6c 3c b2 76 48 bc
       -0.013931839 0.014107588 0.014424599 -0.01223533
0001e0 3f 68 5c 3c 8a 57 f9 3c 8e 44 b6 ba b7 ae 1e 3d
       0.013452589 0.03043725 -0.0013905929 0.03874084
0001f0 09 5d 23 3c e9 4b bb 3c 36 e7 93 3b ec fb 81 3c
       0.009970912 0.022863345 0.0045136465 0.015867196
000200 70 29 6d bc d3 52 e7 39 78 54 04 3d 9d d5 01 3d
       -0.0144752115 0.00044121462 0.03230712 0.031697858
000210 d3 a6 cb bb 1e 8c b8 3c a6 c9 97 bc be c4 e9 3c
       -0.0062149554 0.02252775 -0.01852877 0.028536197
000220 3c 9e b5 3c c3 81 f9 3c cc 87 15 3c 55 af b6 bc
       0.022170179 0.030457383 0.009126615 -0.022300402
000230 71 f2 fd bc 13 2a 19 3d d8 94 17 3d 87 3a 07 3d
       -0.030999394 0.03739364 0.037007183 0.0330148
000240 c0 0a 79 3c e5 7c 8e 3c 4b 90 20 3c 90 2f d9 3c
       0.015200317 0.017393539 0.009800027 0.026511937
000250 95 ee 8b bc b9 0c ef 3c ed 51 fc bc 98 21 53 bc
       -0.017081538 0.029180871 -0.030800784 -0.012886427
000260 3a 78 c0 bc 7e 03 1b 3d be cb 31 3b a3 b1 9e bc
       -0.023494828 0.037845127 0.0027129496 -0.019371813
000270 04 c3 de bb f7 e1 fe 38 0f cb 81 3c 0f 24 99 3c
       -0.00679815 0.00012153753 0.015843896 0.018693952
000280 69 e1 40 3a 5f 47 c5 bc db 22 e7 bb f6 3e 11 3d
       0.00073578075 -0.024081884 -0.0070537156 0.035460435
000290 3e e5 1a bc 33 1e 01 3d 4c 93 36 bc e9 ac b7 bb
       -0.00945407 0.03152294 -0.011143517 -0.0056053293
0002a0 c3 9f 06 3d 71 08 0b 3d 81 c0 80 bc 98 ab f8 3c
       0.032867204 0.033943597 -0.015716793 0.03035526
0002b0 43 66 16 3d b2 99 16 3b 34 1a 18 bc cd a6 08 3d
       0.036718618 0.0022979793 -0.009283591 0.0333622
0002c0 cc 83 cb 3c 24 13 a8 3c 5d f2 46 3b bd fb 05 3d
       0.02484312 0.02051694 0.0030356862 0.03271078
0002d0 c2 ee 98 3c 18 21 94 bc 21 d4 8d 3c 4c d3 4f bb
       0.018668536 -0.018082187 0.017313065 -0.0031711636
0002e0 8e a9 02 bd 3a 68 93 3c 7a b4 c2 bc e2 10 86 bc
       -0.03189998 0.017994035 -0.023767699 -0.016365472
0002f0 20 d9 16 3c d1 e3 e0 3c 82 94 11 bd 78 29 56 bc
       0.00920704 0.027452381 -0.03554202 -0.01307141
000300 21 75 55 bc 07 ff 32 bc ae e1 92 3c bf 28 0e 3c
       -0.013028414 -0.010925061 0.017929878 0.008676707

fc2.weight f4 [10, 196]
000000 87 2e 7a bd 1d b4 71 bc c4 e4 2a 3e ba e1 80 bd
       -0.06107953 -0.014752415 0.1668883 -0.06293054
000010 2d 78 3c 3b ea 5b 80 3d fc 54 8f bd d0 ad e5 bc
       0.0028758154 0.06267531 -0.06998631 -0.028036982
000020 15 6d 49 bc df 99 f8 bc 26 e6 2e 3d 8f 7b 82 bd
       -0.012294074 -0.030346809 0.042699955 -0.06371223
000030 cd 52 4b bc 0b 04 5e 3d 6a aa be 3d e3 92 c9 bd
       -0.012409878 0.054203074 0.09309848 -0.098424695
000040 51 a4 b4 3d c9 df d9 bb 8a 3b 78 3d 52 ff 0a bd
       0.08820403 -0.0066489917 0.060603656 -0.0339349
000050 9a 4b a0 bd 82 2c 59 bc ce 0b a3 bc 2f 10 e6 bd
       -0.0782692 -0.01325524 -0.01990309 -0.112335555
000060 7c 19 de bc dc 1a 84 bd 45 fe d1 bd a3 2c ea 3c
       -0.027111761 -0.064504355 -0.10253576 0.028585738
000070 d2 90 a9 3b fe 93 44 3d 85 5e 68 bc 61 4a 91 bd
       0.0051747346 0.0479927 -0.014182691 -0.07094265
000080 1d ad da bc 34 7a 4b bc 6a d4 f9 bc 09 b8 33 bd
       -0.026693875 -0.012419272 -0.030496795 -0.04387668
000090 ff ce 1c bb 16 1e 55 3c 7f 2f c8 3b 5b 20 d7 bd
       -0.002392709 0.013007661 0.0061091776 -0.10504218
0000a0 c2 49 24 3e 8a 9a 6e bd 48 66 3d 3c 1a ef 04 3e
       0.16043761 -0.05825285 0.01156003 0.12981835
0000b0 17 6f 80 bd ea 4d 12 3d 49 bd bf 3d a8 05 82 3a
       -0.06271189 0.035718836 0.09362275 0.0009919899
0000c0 31 b9 e7 3c 40 32 af bd 74 ef 77 3c a5 a3 ca 3c
       0.028286548 -0.08554506 0.015132774 0.024736235
0000d0 7c ec bc 3c 66 c3 6d bd 8d a6 ce bd c3 79 fc 3d
       0.023061983 -0.058047675 -0.10090361 0.12327912
0000e0 31 c8 b9 bd c7 6d db 3d 1b f5 f9 bd 7c 0d cd bd
       -0.090713866 0.10714298 -0.12204953 -0.100123376
0000f0 cd 8e 8e 3d cb 3f de 3d f2 74 d8 bd f0 c5 44 3d
       0.06960831 0.10852011 -0.105691805 0.04804033
000100 14 4a aa bd 8c 2b 49 bd c1 e5 ca 3b 8e 3a 86 bc
       -0.083149105 -0.049113795 0.0061919396 -0.016385343
000110 e4 a3 8e bd 62 9e 97 bd ae 96 00 3e 72 8a 15 3e
       -0.069648534 -0.07403256 0.1255748 0.14603594
000120 5b 02 bd 3d 2e 0c 25 3d 1a 0e 35 bd a9 f7 b3 bc
       0.09228965 0.04029482 -0.0442029 -0.02196868
000130 a0 55 d2 3d f7 fd 41 bc 2e 46 83 3d ef bd 5b bc
       0.10270238 -0.011840335 0.0640987 -0.013411983
000140 f4 ba 23 bd c0 5a 14 3d 43 a9 f0 3c 98 e3 af bc
       -0.039973214 0.03621936 0.029377585 -0.02147083
000150 b5 46 45 3d 0c 17 8d bd 9b 92 29 3a e8 f7 7e bc
       0.048163135 -0.068891615 0.00064686843 -0.015562035
000160 36 82 c2 bd 4b 09 ad bb 08 34 6d bd 98 1a d1 3d
       -0.09497492 -0.005280649 -0.05791095 0.102101505
000170 39 9f d6 3d 9e dd 01 bc d3 a6 6e 3d 48 12 cb bd
       0.10479588 -0.007926373 0.058264565 -0.09915596
000180 85 29 f4 bd 94 96 0b 3d ec c5 e9 bd b4 0a d4 bd
       -0.11921982 0.03407915 -0.11414704 -0.10353604
000190 31 e0 89 bd 18 91 3a bd 42 08 c7 3b 29 99 11 bc
       -0.06732214 -0.04554853 0.0060739825 -0.008886614
0001a0 e3 5d 8b bd b0 76 4a 3d f0 d8 1e 3e 41 45 54 3c
       -0.06805017 0.049429595 0.15512443 0.012955965
0001b0 0c 7b e0 bd f5 68 65 bd 8c 3a ff 3b fb cc bb bb
       -0.10960969 -0.056008298 0.0077889618 -0.0057312227
0001c0 de ea 30 3c 0a a4 dc bd d4 2d 7f 3c d4 17 8c bd
       0.010798184 -0.107734755 0.015574891 -0.06840482
0001d0 05 0d b0 bd 5f bb e7 bd 4d 2b ab 3d 39 fd 7d 3d
       -0.08596233 -0.11315035 0.08357868 0.06200907
0001e0 34 4f 2f bd 9d 26 63 bd 61 57 90 bd d5 6d d0 3d
       -0.042800143 -0.055456746 -0.07047916 0.10177199
0001f0 d9 26 26 3e fc 78 08 bd c1 b1 9f 3c da f3 3a bd
       0.16225757 -0.033318505 0.01949394 -0.04564271
000200 03 5e 3c 3c 76 c3 10 bd 00 92 1b bd 8d 9f ce bd
       0.0114970235 -0.035342656 -0.037981033 -0.10089026
000210 64 12 a8 bd 51 49 80 bb bf de 7c 3d bc fc ce bb
       -0.08206633 -0.00391499 0.061735865 -0.0063167494
000220 03 7a 3e 3c 54 61 04 3d 49 c4 18 bc 96 58 3e bd
       0.01162577 0.03231938 -0.009324142 -0.0464712
000230 b8 47 05 3d 40 0f cf bd bf 4e bf bd a3 32 48 bd
       0.0325391 -0.101103306 -0.093411915 -0.048876416
000240 26 52 4f 3d b0 4c 95 bd d5 d5 96 bd 64 a0 b2 3c
       0.050615452 -0.072900176 -0.07365004 0.021804996
000250 99 22 72 bd 01 91 bd 3d cc 19 89 bd 2b b9 65 3c
       -0.059115026 0.09256173 -0.066943735 0.014021198
000260 80 1c 5c 3d e7 78 91 3d 61 70 09 bd 3a 01 b4 3d
       0.053738117 0.071031384 -0.03355444 0.087892964
000270 2c a9 9e 3d ab da 3a bd c9 47 86 3c cf 56 13 3d
       0.07747111 -0.045618694 0.016391652 0.03597146
000280 67 93 b9 3c b0 7b 2f 3d 11 13 45 ba 6b 2c 49 bd
       0.022653295 0.042842567 -0.0007517795 -0.049114626
000290 3e cc 74 bd 1f f6 ef 3d 1d 29 56 3c d1 b7 76 3d
       -0.059765093 0.11716866 0.013071326 0.060233895
0002a0 3f a4 40 3d 06 69 9c 3b 48 4f 7e bd f5 c2 8d bc
       0.047031637 0.004773262 -0.062087327 -0.017304877
0002b0 a4 73 2c 3c b8 37 15 bd 90 83 7f bd 30 79 bc bc
       0.010525618 -0.03643009 -0.062381327 -0.023007005
0002c0 c1 99 b7 3c 35 96 f0 bd 75 ad 22 bc a1 a7 df bd
       0.022412183 -0.117474 -0.009929051 -0.109206446
0002d0 6a 65 e0 3c bb bd b9 3d 2d cc d1 3d b1 e6 17 3d
       0.027392108 0.09069391 0.102440216 0.03708524
0002e0 07 c4 01 3d 3e 8a 88 3d bf 17 1e bd 91 31 c9 3d
       0.031681087 0.066669926 -0.038596865 0.09823907
0002f0 10 21 f0 3d b9 3e 05 3d 41 3c fa bc 3c c1 bd bd
       0.11725056 0.03253052 -0.03054631 -0.09265372
000300 b5 19 23 3d 64 e0 86 ba 1f 90 c3 bd 69 1f 57 bd
       0.039819438 -0.0010290262 -0.09548973 -0.05252019
000310 ad 4f 90 3d 18 d4 0f 3e 65 5c 62 bb 63 aa c6 3c
       0.07046447 0.14045751 -0.0034539935 0.024251169
000320 4c e2 a7 bd 7b c9 34 bb 55 71 ae 3d 31 ea be 3d
       -0.081974596 -0.0027585912 0.0851771 0.09322012
000330 28 c1 16 3d 24 ba 61 3c 4c 7a dc bd 9a a0 a2 bd
       0.036805302 0.01377729 -0.10765514 -0.079407886
000340 c8 d9 87 3d aa fd 88 bd 08 31 f5 bd 65 e2 d6 3d
       0.06633335 -0.066890076 -0.119722426 0.104924
000350 22 d6 9c 3d e7 58 77 bc 07 c7 63 3d 73 d3 b8 3d
       0.0765803 -0.01509688 0.05560973 0.09024706
000360 a0 55 a7 bd 32 5d 85 bd 5f 6a 68 3c 57 ec a8 3d
       -0.081706285 -0.06511916 0.014185517 0.08248203
000370 ec dc 06 39 6f 77 cb bd 92 b5 18 3e 2f cd 89 bd
       0.00012861536 -0.099348895 0.14913014 -0.06728589
000380 1f 7c 53 3d 46 bd cb bb be 62 2c bd f4 16 6a 3c
       0.051632043 -0.0062176315 -0.042086355 0.014287699
000390 ef 1f 93 3d 28 3b ec 3c fd a6 8b 3d 97 11 b3 bb
       0.07183825 0.028836802 0.0681896 -0.0054647434
0003a0 c3 45 d8 3c de 81 bc 3d 5e 54 c5 bc f0 e5 0c bd
       0.026400452 0.09204458 -0.024088081 -0.034398973
0003b0 41 d0 d6 bc 37 10 67 3d cb 62 b4 bc ea aa 80 bb
       -0.02622235 0.056411948 -0.022019764 -0.0039266245
0003c0 13 ab cf bd 26 6f 69 bd 92 54 7b bd 28 e7 27 3d
       -0.10140052 -0.056990765 -0.06135995 0.040991932
0003d0 13 4c 94 3d 45 e1 96 3d 7e 8a 4f bd 39 f0 b2 bd
       0.072410725 0.073671855 -0.050669186 -0.08737225
0003e0 b8 24 13 3d 4f fb 86 bd 97 75 c1 3a e9 fd d2 3c
       0.03592369 -0.06590902 0.0014759776 0.02575584
0003f0 df 02 55 bc 28 47 80 3b af 7b 52 3d 9a db 04 3d
       -0.013001173 0.0039147325 0.051387485 0.03243599

fc2.bias f4 [10]
000000 6e 8e 4d 3d 2d 88 f9 3b fb 77 13 bd 64 36 76 bd
       0.05018466 0.0076151104 -0.036003094 -0.060110465
000010 ef 0f d3 3b 5f ef 34 3d 8b 96 15 bc ab a8 9b 3d
       0.0064411084 0.044173595 -0.0091301305 0.0760053
000020 39 45 93 bd a1 6f a2 bd
       -0.071909375 -0.07931448
