models/mnist_model.pt (torch, 625328 bytes, 4 tensors)

fc1.weight f4 [196, 784]
00000000: 6b65 903c 647d 87bc 254b fcbb 04f8 823c
00000010: 7de5 0cbd e21a a93c bb16 05bc 227d 8e3c
00000020: f844 893b 00b7 a8bb e695 153c 523f 813a
00000030: 2c00 493c 6fbc 70bc 1578 5dbb 15c7 82bb
00000040: a534 903b 96c3 70ba ae66 f93c 6661 293c
00000050: ff9e 66bc 960e b7bc 1394 ddbb 9a8d 84bc
00000060: e837 48bc ebea 743a 090e a83c 0dab 983c
00000070: ed2d 12bd 1204 af3c efc1 163c 1c95 073d
00000080: 70c2 ba3c ff76 08bd 0e50 0ebd 00a9 93bc
00000090: 74fc f93c e867 debb 52a2 6c3c 7ace 8ebc
000000a0: def8 0b3d 1477 82bc 61fd d43c 7faf c6b9
000000b0: 7485 a0bc e901 903c 50d5 a1bc 2fef 1e3c
000000c0: 0ee0 35bc 38bd 99bb ddd3 0fbd 0ce2 91bc
000000d0: 7267 983c f6f1 1abc b987 0e3d b02a e43c
000000e0: 4e6f 20bb 41a4 c9bc 50cf ab3c e2e4 283c
000000f0: bd7b c3bc 5ea7 b73c 98f6 aa3c e354 fc3c
00000100: afca abbc b38c e4bb d3cc 03bb 74e7 773b
00000110: 2586 e9bc 558f dabc 696d 943c 019d 1dbc
00000120: 7b13 853c 0e9f 6e3a e7ff 2c3c e4d5 dc3b
00000130: 781f 453c 78d5 893c 2fe3 0abd 26af 8c3c
00000140: 9a1a d4bc 3f1d e3bc d4ff b63a 65d8 e0bb
00000150: a77a a53c 2fcb afbc 1839 05bd ca8e ce3c
00000160: 7373 c7bb ebd5 9d3c 8b65 2e3c 2417 e3bc
00000170: 806e c33b 2e75 e33b 1572 d3bc 44e2 9bbc
00000180: 8b33 273c 008e 913b 0a8f 8bbc 0b6a 50bc
00000190: 4cc2 fa3c d711 12bc c8cd 903c d278 5a3c
000001a0: 0d0e cbbc f145 02bd ff28 073d 0344 543a
000001b0: 9882 c03c 662d d83b a04b 2f3c 022f d43c
000001c0: 5988 073d 0880 c8bc e1e2 713b 01fa d33c
000001d0: 317e cd3c 1abf ae3c 05ca dabc 9d79 dbbc
000001e0: a54e bdbc 2652 1b3b 4900 083d ee66 cbbc
000001f0: f59d 8a3c bab5 afbc e8df 0ebd 4e4f 11bc
00000200: d856 9d3c 94c5 013d 38de c2bc 99ab c73b
00000210: b09f ed3c 0b62 ae3c 8b46 a33c d854 bf3c
00000220: fa25 ad3c a4e9 063c c7ab cebc 640b fcbc
00000230: da6a 8cbc f7b1 a1bb 85ad b9bc 7d6c 493c
00000240: 8df9 283c 7687 10bc 771d 533c 52a3 293c
00000250: 4020 a33c 3cf5 b23c 93e0 69bc d1d5 063d
00000260: 8a49 bcbb 6fa6 24bb 4873 0dbd 3fb0 c1bc
00000270: 5ff4 aebc 76e6 71bc 8136 d53c 13dc 3fbc
00000280: 97bb e2bc ef5c 473c 5ab3 1b3c f6bc ad3c
00000290: d439 a4bc bef2 d63b 39f2 63bc 5434 10bc
000002a0: bd82 efbc c6b2 8bbc 67c0 3fbc 708d 6d3c
000002b0: ef99 bf3b 5be8 073c 475d 103d 395e 0c3d
000002c0: fc57 bf3c db7f 97b8 9810 d7bc 7b53 d63c
000002d0: e0b3 25bc 4dae 84bb 4ce5 06bd f4a2 26bc
000002e0: d11e d2bc 341b 053d 967a f7bc c787 e1bc
000002f0: fd0a f1ba 5e4c a3bc dc11 443c a2d7 74bc
00000300: 0262 97bc c81b 103a 9d4b cb3c 2238 d4bc
00000310: d009 833c 4497 b53c 4621 0c3d 5524 d2bc
00000320: d14d 053c b104 dabc a0cb fc3c eefc 5abc
00000330: 89be b23c 0435 6e3a e1d3 53bb 9326 82ba
00000340: 5f28 d83b 4317 863c 5abc 3e3b 8a1e d73b
00000350: f1a5 14bd f3c7 ca3c 8409 063d 2485 fd3c
00000360: 3d48 df3c a807 cdbc 0b38 50bc 1862 003d
00000370: d584 ebbc a781 fb3c 1c28 eebc 4177 d4bc
00000380: 7ea7 883c 4a6d d8bc 4a54 10bc 0438 d13c
00000390: bd72 e63c 5ebb 0b3d 99b7 cdbb e4ec d7bc
000003a0: 34e6 123d aa4b e1bb a6bd 5cbc 86d7 2d3c
000003b0: 14eb bbbc 303e c43c 5d87 ab3c 0418 fcbc
000003c0: 8968 ffbc 1eb4 1dbb 5702 9b3c ee62 593b
000003d0: 9a07 6fbc 49fb 803b 3797 fbbc a89b c0bc
000003e0: 1809 c5bc ddd9 e73c d85a fa3c c07a 53bc
000003f0: 8b47 5a3a 8be6 783c a5f4 713b cca4 95bc
0.017626485 -0.016539283 -0.0076993876 0.015987404 -0.034398545 0.020642702 -0.008123095 0.017393652
0.00418913 -0.0051487684 0.009129977 0.000986079 0.012268107 -0.014693364 -0.0033793498 -0.0039910176
0.004400807 -0.0009184418 0.03044447 0.010338163 -0.014075994 -0.022345822 -0.0067620366 -0.016180802
-0.01222036 0.0009342867 0.020514505 0.01863625 -0.03568833 0.021364246 0.009201511 0.033101186
0.022797793 -0.03331661 -0.034744315 -0.018024921 0.030515887 -0.006787289 0.014442997 -0.01743244
0.034172885 -0.015925921 0.025999727 -0.00037896258 -0.019594885 0.017579036 -0.019755036 0.0097005805
-0.011100782 -0.004691746 -0.035114158 -0.017807983 0.018604014 -0.009457102 0.034797404 0.027852386
-0.0024480405 -0.024614455 0.020972878 0.010308476 -0.023862714 0.022418674 0.020869538 0.030802196
-0.02097067 -0.0069747805 -0.0020111098 0.0037827166 -0.028506348 -0.026679674 0.018118577 -0.009619952
0.01624464 0.00091026805 0.010559059 0.006739365 0.0120314285 0.016825423 -0.033908065 0.017173361
-0.02589159 -0.027723907 0.0013961741 -0.0068617337 0.020200087 -0.02145919 -0.032525152 0.025214572
-0.0060867607 0.019267043 0.010644327 -0.027720995 0.0059641004 0.006941459 -0.025811234 -0.01902879
0.01020516 0.0044419765 -0.01703598 -0.012720595 0.030610226 -0.008915386 0.01767625 0.01333447
-0.024786973 -0.031804983 0.03299808 0.0008097293 0.023499772 0.006597209 0.010699183 0.025901321
0.033089016 -0.024475113 0.0036908912 0.025876047 0.025084587 0.021331359 -0.026707659 -0.026791388
-0.02310879 0.0023700087 0.033203397 -0.024829354 0.016921023 -0.021448959 -0.034881502 -0.008869005
0.01920645 0.031682566 -0.023787603 0.006093454 0.029006809 0.021286985 0.019931098 0.023355886
0.021136273 0.008234415 -0.025228394 -0.03076715 -0.017140795 -0.004934545 -0.022665748 0.012293932
0.010313404 -0.008821359 0.012885443 0.01035388 0.019912839 0.021845452 -0.014274734 0.032918755
-0.005746071 -0.0025123616 -0.03453377 -0.023643611 -0.02135676 -0.014764419 0.026026966 -0.011710185
-0.02767734 0.012168153 0.00950321 0.021208268 -0.020047106 0.006559699 -0.013912731 -0.0088015385
-0.029237146 -0.01705302 -0.011703587 0.014499053 0.0058472077 0.008295144 0.035245206 0.034269545
0.023357384 -7.224056e-05 -0.02625303 0.026162853 -0.010113686 -0.0040490986 -0.03293352 -0.010170687
-0.02564946 0.032496646 -0.03020982 -0.027530564 -0.0018390116 -0.019933876 0.011967149 -0.014943989
-0.018479351 0.0005497304 0.024816329 -0.025905672 0.01599589 0.022166856 0.03421142 -0.02565209
0.008136229 -0.026613565 0.030858815 -0.013365967 0.02181937 0.00090868794 -0.0032322335 -0.0009929709
0.0065966095 0.016368514 0.0029103965 0.00656492 -0.036291067 0.024753546 0.03272392 0.030947275
0.027256126 -0.025028065 -0.012708674 0.03134355 -0.028749863 0.030701471 -0.02907186 -0.025935771
0.016681429 -0.0264193 -0.008809159 0.025539406 0.028130883 0.034114234 -0.00627799 -0.026358075
0.03586407 -0.006875475 -0.01347295 0.010610467 -0.022939242 0.023955435 0.02093857 -0.03077317
-0.031177776 -0.0024063657 0.018922014 0.003317054 -0.014589215 0.0039362055 -0.030711753 -0.023511723
-0.024052188 0.028302127 0.030560896 -0.012907684 0.0008326701 0.0151916845 0.00369195 -0.018267058

fc1.bias f4 [196]
00000000: e919 e0bc 990e 323c 72de 583c c509 f13c
00000010: cfcf 3dbc 5833 29bc cfd8 7cbc ba37 e53c
00000020: 804c 253c 2577 1fbc 2beb 9f3a 6259 37bc
00000030: 1702 87bc 14f0 eebc b8f0 d4bc f459 4cbc
00000040: 5d0d 1fbc 46e6 db3b 83ba 36bc 5368 203d
00000050: cb8b 03bd 5490 8c3b 2624 1d3d cd40 55bc
00000060: 638e 01bd be73 7b3c 56b2 ab3c 29fb db3a
00000070: 676a c5bb 7145 253c 743a 0c3d aea8 75bc
00000080: 23a3 debc 4c5e 7a3c 4f95 f1bc 882d fc3c
00000090: 1ae9 afbc 4abe 263c c16a c4bc 5c71 10bb
000000a0: 0a04 cd3c f319 083d d009 143c bc37 683b
000000b0: 9f64 bf3c 172e 1dba 18fd 67bc 6ac3 2abb
000000c0: 4ddd 6f3c 388c da3c 87c5 30bc c220 113d
000000d0: 2a3e 083d 6cbc 50bc fe77 f43c 13af a63c
000000e0: d94e 1d3d 2c2d 633c 00e1 543c a8c4 47bc
000000f0: 4a53 5f3a 0c96 84bc c7b2 e13a b2d7 483c
00000100: 1fcf c73c 788e bbbc 3888 183d 8617 7fbc
00000110: de84 c13c 1889 043d 8e99 c1bc 1d93 cf3c
00000120: 6fb9 c0b6 dd48 64bc f884 c03b 1602 073c
00000130: 0de5 ccbc 32e4 6a3c 6b74 0e3b ffad 523c
00000140: a910 0d3d e428 2cbc 61fe 0f3d 0c69 053c
00000150: a332 233c bdaa 88bb ba6d be3b 14c5 043d
00000160: 2024 8b3c 25e7 203c 61fe 56ba 2cd5 fcbc
00000170: 94af 5ebc 8d52 46bb fd00 f1bc 7269 47bc
00000180: 917a 033c b64a 033d 51eb 2cbc a1df de3b
00000190: 74e5 b03c c59f cdbb fa31 f5bc a7d1 c73c
000001a0: 83a9 b9bc 1240 d6bc 8aa6 b0bc 4aa6 1d3c
000001b0: a42e c3bc 3119 c23c b405 5bbb e4f8 12bc
000001c0: a1df 8bbc f7c2 903c b0a8 05bd 1605 933a
000001d0: d576 c6bc 9885 ca3b 322d 7c3c 8633 ee3c
000001e0: e4d0 9a3c e532 0e3d 4688 9a3b 8617 d9bc
000001f0: 7f58 143d a75d 8e3c a226 af3c 1077 be3b
00000200: 4a5c 123d 2640 263c a6f3 223d 7885 cebc
00000210: 03cc 213c 46f4 11bd c311 0c3c 7e0a 343b
00000220: 4897 043d dcc4 573c a4e0 bd3c f0c8 833c
00000230: c644 1b3d 34cf 1c3c f361 183d f463 533c
00000240: a003 a3bc 25ae aabc 09a5 05bc f840 8abc
00000250: 1c65 8ebb bd21 20bc 3845 bf3c 6a2b f1bc
00000260: ef35 2f3c 0b40 dc3b 7c4c 333c 2108 9abc
00000270: dfff 0cbc 6cf2 d73b acb1 b9bc 0b9c 693c
00000280: 2b3a a53c b35d f4bc fd7b 6cbc 100e 873c
00000290: febe a03c aa27 003d 5fe1 533c 51f1 ea3c
000002a0: 48f0 b3bc 4a16 913b 0a77 0bbb 7b85 8d3b
000002b0: 9243 e4bc f05f 293d 21bf 803c 80b4 98bc
000002c0: 6fa9 fcbc 7ec4 d0bc 51af d83b 3b64 913c
000002d0: 96ca f7bc 6f42 ef3c 883a c9bc b110 4f3c
000002e0: 723c 0bbc d389 653c 7583 d1bc 7a43 42bc
000002f0: 2065 163b 27f4 7e3b a502 02bd 9f23 133d
00000300: dc61 0c3c ab00 e83c c25e a43b 774e 8dbc
-0.027356105 0.010867738 0.013236629 0.029423604 -0.01158519 -0.010327183 -0.015432551 0.027980674
0.01008904 -0.009732996 0.0012200823 -0.011190744 -0.016480489 -0.029167213 -0.02599369 -0.012472618
-0.009707776 0.0067108003 -0.011152866 0.03916199 -0.03211574 0.004289666 0.038364552 -0.013015938
-0.03162993 0.015347419 0.02095906 0.0016783226 -0.006024647 0.010087357 0.034235433 -0.01499383
-0.027177399 0.015281271 -0.029490141 0.03078343 -0.021473456 0.010177204 -0.023976685 -0.0022040224
0.02502634 0.033227872 0.009035543 0.003543361 0.02336341 -0.00059959426 -0.014159463 -0.0026056417
0.014640165 0.02667819 -0.010789282 0.03543163 0.03326241 -0.012740236 0.029842373 0.020347154
0.038405273 0.01386575 0.012993097 -0.012192883 0.0008519186 -0.01618483 0.0017219417 0.012258457
0.024390755 -0.022895083 0.037239283 -0.015569573 0.023622926 0.032357305 -0.02363279 0.025338704
-5.743633e-06 -0.013933388 0.005875226 0.008240243 -0.025011564 0.014336633 0.002173687 0.012858867
0.034439716 -0.010507796 0.035154704 0.008142721 0.009960803 -0.004170744 0.0058114203 0.03241451
0.016985 0.009820734 -0.00082013576 -0.030863367 -0.013591666 -0.0030261606 -0.029419417 -0.012171136
0.008024828 0.03205367 -0.010554151 0.006801561 0.021593787 -0.0062751495 -0.029931057 0.024391962
-0.022663837 -0.026153598 -0.021563787 0.009622166 -0.02382595 0.023693653 -0.0033420147 -0.008970473
-0.017074408 0.017671091 -0.032631576 0.0011216726 -0.024226585 0.0061804764 0.015391635 0.029077303
0.018898435 0.034716506 0.004715952 -0.026500475 0.03621721 0.017378641 0.021380726 0.005812533
0.035732545 0.01014713 0.039783143 -0.025210127 0.0098753 -0.035633348 0.008549157 0.0027472074
0.032370836 0.0131694935 0.023178406 0.016087025 0.037907384 0.009570885 0.037202787 0.012902249
-0.01989919 -0.020834992 -0.008157023 -0.016876683 -0.0043455493 -0.009773669 0.023348436 -0.029439647
0.010694011 0.0067215017 0.010943528 -0.018802704 -0.008605926 0.0065901782 -0.022667728 0.014258395
0.020169338 -0.029829836 -0.014433858 0.016486198 0.019622322 0.031287827 0.012932151 0.028679522
-0.021965161 0.004427706 -0.002128067 0.0043188906 -0.027864251 0.04135126 0.015716137 -0.018640757
-0.030842511 -0.02548432 0.006612696 0.017747989 -0.030247968 0.029206483 -0.024564043 0.012638257
-0.008498298 0.014009911 -0.025575379 -0.011856908 0.0022948459 0.003890285 -0.031740803 0.035922643
0.008568253 0.028320631 0.005016179 -0.017249329

fc2.weight f4 [10, 196]
00000000: 9778 24bc 74dc 783d 5554 5fbd ee14 83bd
00000010: 977e 383d 5116 9cbc 3022 eb3a 8936 9a3d
00000020: 74db fe3d 535b 94bd d804 97bd 748b a5bd
00000030: 3482 46bd 3851 8b3d d1b2 053b e410 98bc
00000040: 4eaf 553c e5d8 253d 1193 643d 2ea9 e6bc
00000050: eaaa a2bd ea75 f6bc bed5 c83b 664b dc39
00000060: e7c9 fb3b 23c5 813d 9a22 02be a63d ed3d
00000070: 1a1a 843c 7a65 f4bc dc41 1fbe 87d2 babd
00000080: ca28 5a3d 6aec 96bd ad0e ebbc 1c2c cb3c
00000090: e46a 283e c244 6bbd 5f25 5dbd 1087 cc3d
000000a0: 0f82 5bbd 5072 8e3d 1f7d 04bd 1fd5 163d
000000b0: 1c72 80bd 00ee 7c3b 3205 093e 7f61 853d
000000c0: 567b 6dbc 8ff7 dcbd 93c0 853d d034 d23d
000000d0: 53e0 0ebe 4fdc 39bc cf1a 023e 05a2 42bd
000000e0: 2e12 943d 6ef9 7ebd e6c6 c0bd 3cd4 c83c
000000f0: e316 ff3c de84 16bd 9d94 bbbd 1f2b 333d
00000100: 5454 a8bd 80b3 433d 0e88 d9bd 1685 20ba
00000110: bb58 423d 8baa a8bc b792 e63b fe7c f5bd
00000120: d611 293d cba1 123d ace0 9fbc ab62 f3bd
00000130: 4913 0abd 0c16 cebd 753d d23c f21d 7dbd
00000140: 7986 aabc 6b20 b3bd 69c0 48bd d47a 903c
00000150: ae78 05b9 4cea 9e3b 374f d03b 1d9a 37bc
00000160: 79f0 90bd 5ca0 f63c 9b79 153c 4a07 b8bc
00000170: a1a5 e13c 9ff3 a1bd 15cf 8dbd 3c19 343d
00000180: 4404 b73d 92e7 b7bd 9019 a8bc 5cc2 103c
00000190: 0102 aebd 9b60 91bc 5a17 153d b8dd b4bd
000001a0: 9830 e33d 3e9e ad3c 3904 073b d12a a33d
000001b0: a048 12bd b492 e23d 5895 493d 6cff 44bd
000001c0: 0ad6 ba3d ff01 513d 279d d33c d7f3 e93d
000001d0: a0ce 4a3d e231 b3bd 2926 283b 7fc3 cebd
000001e0: f256 3c3d dfd7 533d 3c3a c4bb 5a5e a13c
000001f0: 117e 8bba 71a9 6b3d 78ef b33d c32e bb3d
00000200: cc84 43bd 3782 de3d 2c84 3fbd 3c0a 583e
00000210: 4273 9c3c 76e9 8dbc 8e06 6c3d 798f babd
00000220: 8fe4 ba3a edc3 c4bc 2c8c ff3d 502f 483d
00000230: 6854 b0bd 9dbe 9dbd 99f2 72bc 50b4 89bd
00000240: c554 06bd b8f8 03be 34c3 95bd dd67 783d
00000250: 9dd0 c2ba a134 b5bd 1cad 68bd aef4 373d
00000260: ca59 7a3b 5ab6 03bd 9bbb 5ebd ec6b 753d
00000270: 5ed6 afbd 50f1 803c 50b2 113d 6f32 043e
00000280: 5803 853c e360 f03c 0491 8fbd 7e74 45bd
00000290: ad04 623d 50bc e53d 5157 253c 7aa2 3abd
000002a0: 75db 6bbd 1132 4dbc b357 bbbc e2fe c1bd
000002b0: 2647 0c3e 5dd8 d13b 3e6c 78bd 2ce5 073d
000002c0: 79f0 d4bc b678 9e3d 241e 803c 2460 823d
000002d0: dc50 0abd 770b 043e fa32 113d 71b5 193d
000002e0: eac0 8d3d b868 893d 4ca6 d5bc 3a75 be3c
000002f0: 422d 0e3d fa59 82bd da99 863d c372 d93c
00000300: 802c d13d f5a3 b03d 302a 333d 875a 8abd
00000310: f042 80bb 8559 f83d 48f8 1dbb 2185 fcbc
00000320: 6028 99bc d68f 0d3e 4675 2bbd d510 acbc
00000330: 07c5 62bd 7f4f 97bd 7f25 0d3d 6af6 953b
00000340: 885a b3bd 539f a6bc dcac f4bc 899f 7d3d
00000350: e488 57bd d1da fbbd c14a a63c 00a6 84bd
00000360: b528 293d c26b 18bc 18b3 02bd 37d2 acbd
00000370: 2e9a 073e aab7 f0bb 3b09 ad3c a7bd 1d3d
00000380: 6365 88bd 0041 66bd a0d3 393b 1bf1 cc3d
00000390: 2b3d 563b 35cf 923d 9059 8ebd e4cd 893d
000003a0: cf71 82bd e281 7fbd 642f 6dbd ae55 873d
000003b0: 5a46 373c 9186 823c b907 163e 9b98 143b
000003c0: 9edd 883d db37 e8bd 83b2 823a 359b f9bd
000003d0: 6425 28bd a86b 123e db45 f93c e10c afbd
000003e0: 2a50 8c3d b026 a93d a19f bdbd 0427 73bd
000003f0: d4d8 54bc f573 b2bd 26f6 b03d 983e 003d
-0.0100385165 0.060757115 -0.054523785 -0.064004764 0.0450426 -0.01905361 0.0017939266 0.07529933
0.12444201 -0.07243981 -0.07373971 -0.08083239 -0.048464015 0.068026006 0.0020400772 -0.018562742
0.013042284 0.04049005 0.055804316 -0.028156843 -0.079427555 -0.030085523 0.0061289957 0.00042017846
0.0076839807 0.06336429 -0.12708512 0.11584024 0.016125727 -0.029833544 -0.15552467 -0.09122186
0.053261556 -0.07369311 -0.028693521 0.024801306 0.16447026 -0.05743862 -0.053990718 0.09986699
-0.05359083 0.06955397 -0.032345887 0.036824342 -0.06271765 0.0038594007 0.13380888 0.065127365
-0.014494738 -0.107894056 0.06530871 0.102639794 -0.1395276 -0.01134403 0.12705539 -0.047517795
0.0723003 -0.062249593 -0.09412937 0.024515264 0.031138843 -0.036747806 -0.09159205 0.043742295
-0.08219209 0.047778606 -0.106216535 -0.0006123347 0.0474479 -0.020589134 0.0070365327 -0.11986731
0.041276775 0.03579883 -0.019516312 -0.11884054 -0.033709798 -0.10062799 0.02566407 -0.061796136
-0.020816075 -0.087464176 -0.04901162 0.017636694 -0.00012728825 0.0048497077 0.0063570994 -0.011206177
-0.070771165 0.030105762 0.009123231 -0.022464413 0.027544798 -0.07907795 -0.069242634 0.043969378
0.089363605 -0.089797154 -0.020520002 0.008835401 -0.08496476 -0.01774626 0.036399223 -0.08831352
0.11093253 0.02119362 0.0020601882 0.07967151 -0.03571379 0.11063138 0.04921469 -0.04809515
0.09122856 0.051027294 0.025831772 0.11423462 0.04951346 -0.08749749 0.002565751 -0.10095882
0.045981355 0.051719543 -0.0059883874 0.01969831 -0.0010642429 0.05753464 0.087859094 0.091397785
-0.047734067 0.1086468 -0.04675691 0.21097654 0.019097928 -0.017323237 0.05762344 -0.091093965
0.001425879 -0.024019206 0.124779075 0.048873246 -0.08609849 -0.07702372 -0.014828348 -0.06723845
-0.032795686 -0.12887847 -0.07312623 0.060645927 -0.0014863197 -0.08847929 -0.056805715 0.04491108
0.003820049 -0.032156326 -0.054378133 0.059917375 -0.08585809 0.015740067 0.035570443 0.12909864
0.016236946 0.029343074 -0.070100814 -0.0482068 0.05518024 0.112175584 0.010091619 -0.045565106
-0.057582337 -0.012524144 -0.022868967 -0.09472443 0.13699016 0.0064039663 -0.060650103 0.03317754
-0.025993573 0.077378675 0.015639372 0.063659936 -0.03376852 0.12894998 0.035449006 0.03752655
0.06921561 0.06709427 -0.026080273 0.023249257 0.03471113 -0.06364818 0.065723136 0.02654398
0.10213566 0.08625022 0.043741405 -0.06755548 -0.0039142296 0.121264495 -0.0024104286 -0.0308252
-0.01869601 0.138244 -0.041859888 -0.02100412 -0.05536368 -0.073882096 0.034459587 0.004576494
-0.08757502 -0.020339644 -0.029867582 0.061919723 -0.052620783 -0.12297595 0.020299317 -0.064769745
0.041298587 -0.009303035 -0.03190908 -0.08438533 0.13242409 -0.007346113 0.021122565 0.038510945
-0.06659963 -0.056214333 0.0028354898 0.10006925 0.0032690268 0.07168428 -0.069506764 0.06728724
-0.063693635 -0.062379725 -0.057906523 0.06608139 0.011186207 0.015933307 0.14651383 0.0022673968
0.06682895 -0.113387786 0.0009971414 -0.121878065 -0.041051283 0.1429888 0.030428817 -0.08547378
0.068512276 0.08259332 -0.092589624 -0.05936338 -0.012991149 -0.08713523 0.08640699 0.031309694

fc2.bias f4 [10]
00000000: 79c4 5ebd 3ce2 623d 4350 61bd 0201 04bb
00000010: 60c5 323c acb8 9d3d 64f4 453d c7d9 e93c
00000020: 3a0e 673c 0056 013d
-0.05438659 0.055391535 -0.055008184 -0.0020142202 0.010911316 0.07701239 0.048328772 0.028546227
0.014102513 0.031576157
